chatbot-deployment/data.pth (torch, 24447 bytes, 6 tensors)

l1.weight f4 [8, 423]
0	0x3d115bf0	0.03548807
1	0xbed2d1c8	-0.41175675
2	0xbe8051b6	-0.2506234
3	0x3e237b99	0.15965118
4	0xbd87d7d1	-0.066329606
5	0x3d4d2099	0.050079916
6	0xbde7f451	-0.113258965
7	0xbd96f84f	-0.0737158
8	0xbf2e9838	-0.6820102
9	0x3fa612d0	1.2974491
10	0x3dea960e	0.11454402
11	0x3e85228b	0.26002917
12	0x3f73dd96	0.9525999
13	0xbde61b8c	-0.11235723
14	0x3f67ceff	0.90550226
15	0x3fa1f050	1.2651463
16	0xbe02957a	-0.12752333
17	0xbf295f70	-0.6616125
18	0x3f602431	0.87555224
19	0x3d00d204	0.031450287
20	0x40046811	2.0688517
21	0xbee4defa	-0.44701368
22	0x3eeee8f8	0.46662116
23	0xbe9c01e8	-0.30470204
24	0x3e7fde06	0.24987039
25	0x3e36a1c7	0.1783515
26	0x3c8a2d2f	0.016867248
27	0x3fdfe10b	1.7490553
28	0xbe088f74	-0.13335973
29	0xbee3d7b3	-0.44500503
30	0xbd87a6e4	-0.06623629
31	0x3c71f7f4	0.014768589
32	0xbeaa7e5a	-0.33299524
33	0x3f1b37a5	0.6063178
34	0xbdb3c089	-0.087769575
35	0xbf4fa509	-0.811112
36	0x3f23a51b	0.63923806
37	0xbbda0e22	-0.006654517
38	0x3fabdcaf	1.3426722
39	0x3f508e32	0.8146697
40	0x3f057617	0.52133316
41	0xbfea70f2	-1.8315718
42	0x3fbadf7f	1.4599456
43	0xbdedde7e	-0.11614703
44	0x3e8e5167	0.2779648
45	0xbd9fccf0	-0.078027606
46	0x3f5feb0d	0.87468034
47	0x3e09e5ea	0.13466612
48	0x3f1a5b92	0.60295975
49	0xbe975baf	-0.29562137
50	0xbe317374	-0.17329198
51	0x3cdb28df	0.026752887
52	0x3e9831a4	0.29725373
53	0xbc93319a	-0.017967988
54	0xbef04c04	-0.46932995
55	0x3f05bb0a	0.52238524
56	0x400f055e	2.2347026
57	0xbf284443	-0.6572916
58	0xbfdd9b86	-1.7313087
59	0x3ef21437	0.47281048
60	0x404fce3e	3.246963
61	0xbf038db5	-0.513881
62	0xbf5e359e	-0.86800563
63	0x3e67e99f	0.22647713
64	0x3f89d78c	1.0768905
65	0x3f2c53ea	0.6731554
66	0xbfe98633	-1.8244079
67	0x3f879570	1.059248
68	0xbf4986fa	-0.7872158
69	0xbf09dc91	-0.5385218
70	0x3ef6e7dd	0.48223773
71	0xbfb25bea	-1.39343
72	0x3f5e94e8	0.8694596
73	0xbdec6095	-0.11541859
74	0x3f85b8cd	1.0447022
75	0xbe84c479	-0.25931147
76	0xbef65a62	-0.48115832
77	0xbe6c70b8	-0.23089874
78	0xbdac363b	-0.08408781
79	0x3f9c8bf0	1.2230206
80	0xbf3aa596	-0.72908914
81	0xbd5be919	-0.053689096
82	0xbedd3267	-0.43202516
83	0x3f9277da	1.1442826
84	0x3fb00b88	1.3753519
85	0xbf7e0ab9	-0.9923511
86	0x3ef8e1a1	0.4860964
87	0x404c257d	3.189788
88	0x3ec2aa40	0.38020515
89	0x3eaed8be	0.34149736
90	0xbc5a774a	-0.013334105
91	0xbe2bdeae	-0.16784164
92	0xbf0a14ae	-0.53937805
93	0xbe2055ff	-0.15657805
94	0xbdff1f7c	-0.12457177
95	0xbf27e762	-0.6558744
96	0x3dce6941	0.10078669
97	0xbd02b769	-0.031913195
98	0xbf597035	-0.8493684
99	0x3f111876	0.5667795
100	0xbd360086	-0.044434093
101	0x3f05941d	0.5217913
102	0x3f05f152	0.5232135
103	0xbf0e9409	-0.55694634
104	0xbdfba9da	-0.12288256
105	0xbfa14bc7	-1.260125
106	0xbea5c3c3	-0.32375917
107	0x3f83877b	1.027572
108	0x402a8fe7	2.665033
109	0xbdb11c15	-0.08647934
110	0xbed10401	-0.40823367
111	0xbd5d5c4d	-0.054043103
112	0xbf55ff7a	-0.8359295
113	0xbec6418c	-0.38721883
114	0x3f67b1bd	0.9050558
115	0x3d55db6d	0.052211214
116	0x3d882031	0.06646765
117	0x3f3497a1	0.7054387
118	0x3e9ab8bc	0.30219066
119	0x3abd2610	0.0014430899
120	0x3f4ce4cf	0.80036634
121	0x3f1c28b6	0.6099962
122	0x3f05381d	0.5203875
123	0x3f4ce533	0.8003723
124	0x3f240ca3	0.6408178
125	0x3ff09851	1.8796483
126	0xbf98c8d6	-1.193629
127	0x3e860497	0.26175377
128	0x3eea20b5	0.45728078
129	0xbe23da50	-0.16001248
130	0xbf061b53	-0.52385443
131	0xbd71b8dd	-0.05901419
132	0xc00bc4d9	-2.1838896
133	0xbe8caf46	-0.27477473
134	0xbf2eefb8	-0.6833453
135	0x3ca3f681	0.020015003
136	0x3f73e23c	0.9526708
137	0x402edb2f	2.732128
138	0xbeac6675	-0.3367192
139	0xbfa0e22a	-1.256902
140	0x3effce9b	0.49962315
141	0xbe7467a5	-0.23867662
142	0xbd9b1c03	-0.07573702
143	0xbec7689a	-0.38946992
144	0xbe027b2b	-0.12742297
145	0x3f247a80	0.6424942
146	0xbd08b6c2	-0.033377416
147	0xbde74652	-0.112927094
148	0x3f164b77	0.587089
149	0x3e827f66	0.25487822
150	0x3e9f9766	0.31170195
151	0xbd0f51eb	-0.034990232
152	0x3f4f40dc	0.8095834
153	0x3fae05ec	1.3595557
154	0x404f850c	3.2424955
155	0x3e81ba4c	0.25337446
156	0x3f671c67	0.90277714
157	0xbe1e616f	-0.15466855
158	0x40268ab1	2.602215
159	0x3f5ca482	0.8618852
160	0xbf1dfb86	-0.6171192
161	0xbf60261a	-0.8755814
162	0x3e9df63a	0.30851918
163	0x3f28e9f6	0.65981996
164	0x3f2a7255	0.66580707
165	0xbd3a5fc5	-0.04550149
166	0x3ea70ef3	0.32628593
167	0xbe826f1a	-0.2547539
168	0xbf29854d	-0.66219026
169	0x3beb8165	0.007187056
170	0xbdf66cab	-0.120324455
171	0xbf2d28bd	-0.67640287
172	0xbdec2319	-0.11530132
173	0x3fb7e93f	1.4368056
174	0x3fc557c2	1.5417407
175	0x3ed7a5d8	0.42118716
176	0x3d991c21	0.07476068
177	0x3f10d3f3	0.5657341
178	0x3e71835f	0.2358527
179	0x3fb07593	1.3785881
180	0x3fca8080	1.5820465
181	0xbe0429f2	-0.12906626
182	0x3f3af574	0.7303078
183	0x3c0cf4a0	0.008603245
184	0x3cd69f06	0.026198875
185	0xbeaa76db	-0.33293805
186	0xbd8250dc	-0.06363079
187	0xbf03c5c8	-0.51473665
188	0xbe5d30f2	-0.21600702
189	0x3fe1f845	1.7653891
190	0xbf505381	-0.81377417
191	0xbe2aaa92	-0.1666663
192	0xbf189ea3	-0.5961706
193	0xbdfe2ecc	-0.124112695
194	0x3e461f15	0.19347794
195	0xbda17dbb	-0.07885309
196	0xbf1d2cd6	-0.6139654
197	0x3e73604e	0.23767206
198	0xbd877e6b	-0.06615909
199	0xbf097a4a	-0.53702223
200	0x3eff6b98	0.49886775
201	0x3ef87114	0.48523772
202	0x3f89c5ef	1.076353
203	0x3e570201	0.20996858
204	0x403f78e1	2.9917529
205	0xbe14315d	-0.14471956
206	0xbe359bfe	-0.17735288
207	0xbe4f7d42	-0.20262626
208	0x3e0d75bd	0.13814445
209	0xbfa02ae1	-1.2513086
210	0xbf485b1f	-0.7826404
211	0x3fbc5007	1.4711922
212	0x3f06985f	0.5257625
213	0xbeddeae6	-0.43343276
214	0xbffe750e	-1.9879472
215	0x3e531788	0.20614445
216	0xbebbc0da	-0.36670572
217	0x3faa17fa	1.3288567
218	0xbe4a7f5b	-0.19775145
219	0xbee68eb3	-0.45030746
220	0x3e9c2028	0.30493283
221	0x3f103b67	0.5634064
222	0xbf422dd2	-0.75851166
223	0xbd8d19fa	-0.0688972
224	0xbdd41d2d	-0.10357127
225	0xbdb8b81e	-0.090194926
226	0x3fbc914b	1.473184
227	0xbe49949b	-0.19685595
228	0x3dce042b	0.10059389
229	0xbe77484e	-0.24148676
230	0xbf15c216	-0.58499277
231	0xbebd71f8	-0.37001014
232	0xbd9a912d	-0.07547221
233	0xbc2322b8	-0.009957008
234	0xbf3cdc2d	-0.7377346
235	0xbeebff4a	-0.46093208
236	0xbf1d3cb1	-0.6142073
237	0x3d156459	0.036472652
238	0xbe939e7d	-0.28831854
239	0xbe8ea6d3	-0.27861652
240	0x3f418b8b	0.7560355
241	0x3f15809a	0.58399355
242	0xbdced9ed	-0.1010016
243	0x3ea485c4	0.32133305
244	0x400ad711	2.1693766
245	0x3cdea684	0.02717901
246	0x3f6f0312	0.9336406
247	0xbd1b3a48	-0.03789738
248	0xbd8d21e3	-0.06891229
249	0xbeba1020	-0.36340427
250	0x3ef4874e	0.4775948
251	0x3e359cc4	0.17735583
252	0xbf3cb87a	-0.7371899
253	0x40351190	2.829197
254	0xbded3357	-0.11582058
255	0xbeb1f206	-0.34754962

l1.bias f4 [8]
0	0x3fa3801c	1.2773471
1	0x3efec2a4	0.49757874
2	0x3f15b00c	0.5847175
3	0x3edb5916	0.42841405
4	0x3f4b9c49	0.7953535
5	0x3f8c03ea	1.0938694
6	0x3f2d905a	0.6779839
7	0x3f065196	0.5246824

l2.weight f4 [8, 8]
0	0x3f78c463	0.9717466
1	0xbdc5c134	-0.09655991
2	0xbf0c9911	-0.5492106
3	0xbedccfa1	-0.43127158
4	0xbfd8611e	-1.6904638
5	0x3f99d56a	1.2018254
6	0x3f7feab4	0.99967504
7	0x3f84f5c4	1.0387502
8	0xbd8dcde3	-0.069240354
9	0x3f987596	1.1910884
10	0x3fee833f	1.8633803
11	0x3ffc1189	1.9692851
12	0xbe0c04b2	-0.13673666
13	0x3e96239f	0.29324052
14	0xbfd9dcaa	-1.7020466
15	0x3fba9237	1.4575871
16	0x3f797dae	0.97457397
17	0x3f8f4f67	1.1196107
18	0x3eedeb88	0.4646876
19	0xc00dc5e6	-2.2152038
20	0xbed61f58	-0.41820788
21	0x3fa69992	1.3015616
22	0x3ed80f91	0.42199376
23	0x3e316488	0.17323506
24	0x3ef01a28	0.46894956
25	0x3fd0aa8a	1.6302044
26	0xbd9b5441	-0.075844295
27	0x3ee82c22	0.4534617
28	0xbf9bc61c	-1.2169833
29	0xbe48d924	-0.19614083
30	0x3e2b81ce	0.16748735
31	0x3fbcc739	1.4748298
32	0x3fda73b2	1.7066557
33	0xbf616b71	-0.8805457
34	0xbf08d1bc	-0.5344503
35	0x3f715685	0.94272643
36	0x3ff1a4da	1.8878434
37	0x3dd45272	0.10367288
38	0x3f365c90	0.7123499
39	0xbe08a4ec	-0.13344163
40	0x3fb85520	1.4400978
41	0x3e9a34e8	0.3011849
42	0x3e1353ff	0.1438751
43	0xbf22106d	-0.63306314
44	0x3fc20c16	1.5159938
45	0x3f9ca95a	1.2239182
46	0xbf814a24	-1.0100751
47	0xbea3535c	-0.31899536
48	0x3df98f32	0.121855155
49	0xbf6986a3	-0.91221064
50	0x400f9182	2.243256
51	0x3e2bc036	0.16772541
52	0xbed89f64	-0.42309105
53	0x3fe2dfff	1.7724608
54	0x3e562def	0.2091596
55	0xbf5105d4	-0.8164952
56	0xbf6e987a	-0.9320141
57	0x3fba59e7	1.4558686
58	0xbeefd65d	-0.46843234
59	0x3f48ec1f	0.7848529
60	0x3f3f7e36	0.7480196
61	0x3ec00a94	0.3750807
62	0x4003964c	2.0560484
63	0x3f9f4377	1.2442464

l2.bias f4 [8]
0	0x3ec7f7ea	0.3905633
1	0x3d7279e7	0.059198286
2	0x3f01568e	0.50522697
3	0x3e31f57b	0.173788
4	0x3f519ce8	0.81880045
5	0x3f40e43e	0.7534827
6	0x3e0d703b	0.13812344
7	0x3ed8eb2c	0.42366922

l3.weight f4 [45, 8]
0	0x3e72f43b	0.23725979
1	0x3e0ce870	0.13760543
2	0xbf534456	-0.8252615
3	0x3f074671	0.5284186
4	0xbf99846e	-1.1993539
5	0xbd18704e	-0.037216477
6	0xc0c9ea52	-6.3098536
7	0xbeedf31a	-0.46474534
8	0xbe5e1fb7	-0.21691786
9	0xbd3b22e4	-0.04568757
10	0x3e0bb1e5	0.1364208
11	0xc006545d	-2.0988991
12	0x3eae11f5	0.33998075
13	0x3ef953c4	0.4869672
14	0x3ed274de	0.41104788
15	0xc025933c	-2.5871115
16	0x3e2e4bfe	0.17021176
17	0x3e622e2f	0.2208793
18	0x3d72a0a7	0.05923524
19	0xbe0e7355	-0.13911183
20	0xbf26036d	-0.6484898
21	0x3ec4efcc	0.384642
22	0xbda596df	-0.08085417
23	0xbfb406e6	-1.4064605
24	0xbd49e442	-0.04928995
25	0xc035ca65	-2.8404782
26	0xc0498bb0	-3.1491508
27	0xc09a1199	-4.814648
28	0x3f77122e	0.96512115
29	0x3f4f83e1	0.81060606
30	0xbe7f8942	-0.24954703
31	0xbf8636ab	-1.0485433
32	0x3f06b21e	0.52615535
33	0xbf6fe7f3	-0.937133
34	0x3e95a3bc	0.29226482
35	0x3d9d6526	0.07685308
36	0xbf6de9fc	-0.92935157
37	0xc06fcab6	-3.7467475
38	0xc0807064	-4.0137196
39	0x3f00f6d1	0.5037661
40	0xbdbf49f1	-0.09340275
41	0xb9b956d3	-0.0003535064
42	0xbee7e254	-0.45289862
43	0xbf3b4909	-0.7315832
44	0xc0447809	-3.0698264
45	0xbee097bf	-0.43865773
46	0xbedbb80e	-0.4291386
47	0x3e31ddbb	0.1736974
48	0xc000725c	-2.00698
49	0x3bacdcf2	0.005275362
50	0xc083f32b	-4.1234336
51	0xc02645ec	-2.5980177
52	0x3f763831	0.9617949
53	0x3e8cc82d	0.27496472
54	0xc06fb8c0	-3.7456512
55	0x3c04bfcf	0.008102371
56	0x3eea39c0	0.45747185
57	0xc0bc781a	-5.889661
58	0xbe89cccc	-0.2691406
59	0xc007aa52	-2.1197705
60	0x3f039cd5	0.5141118
61	0xbf00a894	-0.5025723
62	0xbea8a0a5	-0.32935062
63	0x3cdf5f11	0.02726701
64	0xc064e934	-3.5767336
65	0xbf6a6c87	-0.9157185
66	0x3f0fdfd8	0.56200933
67	0xc028f8d0	-2.6401863
68	0xbf26a2f6	-0.6509241
69	0x3efd2ccc	0.4944824
70	0xbf8255eb	-1.018247
71	0x3c89bb6c	0.016813003
72	0x3edf4118	0.4360435
73	0xbfdd691c	-1.7297702
74	0x3f6b653e	0.9195136
75	0xbebfe46b	-0.37478957
76	0xbf28abb5	-0.65887004
77	0x3d7a693a	0.061135508
78	0xbf678391	-0.9043513
79	0xbf44a881	-0.76819617
80	0x3e3b6018	0.18298376
81	0xbe84925c	-0.25892913
82	0x3ed61f7f	0.41820905
83	0xbffa85d6	-1.9572093
84	0x3d0313a8	0.032001168
85	0x3e5725ff	0.21010588
86	0x3e6c21c0	0.2305975
87	0xbf8839f3	-1.0642685
88	0x3e90d1d0	0.28285074
89	0xbf4c61e2	-0.7983686
90	0x3f20df41	0.6284066
91	0xc09030eb	-4.5059714
92	0xbff60243	-1.921944
93	0xbf62aa13	-0.8854076
94	0x3f8a207f	1.0791167
95	0xbe60303d	-0.21893401
96	0xc06bc358	-3.6837978
97	0xbf8cc5aa	-1.0997822
98	0xbfaa519f	-1.3306159
99	0xc04eba34	-3.230115
100	0xbdaccc9b	-0.08437463
101	0xbef69d41	-0.4816685
102	0x3f2c9b15	0.67424136
103	0xbdafdb6c	-0.08586773
104	0x3f3ab998	0.72939444
105	0xc08304c0	-4.09433
106	0x3f60ce72	0.8781501
107	0xc0c0673f	-6.0126033
108	0x3df030a2	0.11728026
109	0x3ee9a72e	0.4563536
110	0x3eb3e2af	0.35133883
111	0xc0044973	-2.066983
112	0x3f9f1d79	1.2430869
113	0xc0a029e4	-5.0051136
114	0x3f168198	0.58791494
115	0x3e834cb2	0.2564445
116	0xbe92789c	-0.28607643
117	0x3dd7d483	0.1053858
118	0xbe899e52	-0.268786
119	0xc00ea7b6	-2.2289863
120	0x3f0ceb61	0.5504666
121	0xbf67730b	-0.90409917
122	0xbf1b467b	-0.6065442
123	0x3e853b9d	0.26022044
124	0xbecad2e4	-0.39614022
125	0xc0293e54	-2.6444292
126	0x3f111ca0	0.56684303
127	0xbf88b249	-1.0679408
128	0xc08f8e1f	-4.486099
129	0x3f1ec14c	0.620137
130	0xc0910de7	-4.532947
131	0xbed45a97	-0.41475365
132	0xbfcd9fc8	-1.6064386
133	0x3f99da23	1.2019695
134	0xc035146e	-2.829372
135	0x3e2eb59e	0.17061469
136	0x3f366522	0.71248066
137	0xbf2ec4e1	-0.68269163
138	0x3f1b0952	0.60561097
139	0xbef2bb09	-0.47408321
140	0xbffad501	-1.9596254
141	0xbefaf311	-0.4901357
142	0x3f39ee0b	0.7262885
143	0xbf782325	-0.96928626
144	0xbedbaa7f	-0.42903516
145	0x3e52c73b	0.20583813
146	0x3f4e6f23	0.8063833
147	0xbcdaa910	-0.026691943
148	0xc083c90c	-4.118292
149	0x3da3116a	0.07962306
150	0xbe58ac13	-0.21159391
151	0xbf999424	-1.1998334
152	0xc06867af	-3.6313283
153	0xbf307e6c	-0.68942904
154	0x3ecb0033	0.3964859
155	0x3d716124	0.05893053
156	0x3d3d9383	0.046283256
157	0x3f34d09a	0.706308
158	0xc064d8ab	-3.5757244
159	0xbfb7609b	-1.4326357
160	0x3e69e05f	0.22839497
161	0xbf7b33a5	-0.9812568
162	0x3ef6fe34	0.48240817
163	0x3e7e558e	0.24837324
164	0x3ed70b63	0.42000875
165	0x3e04debc	0.12975591
166	0xbfdd5e5f	-1.7294425
167	0xc075e777	-3.8422525
168	0xbfe72f83	-1.8061374
169	0xbe0b46f6	-0.13601288
170	0x3e29a211	0.1656573
171	0xc0236847	-2.5532396
172	0xbfceaf83	-1.6147312
173	0xbdd89b3d	-0.10576484
174	0x3ecfeadf	0.4060888
175	0x3dce0123	0.100588106
176	0xc02a8da2	-2.6648946
177	0xbf6b58c5	-0.91932327
178	0xc06c9538	-3.6966076
179	0xbf406635	-0.75155956
180	0xbe4be582	-0.19911769
181	0xbf05b2b5	-0.5222581
182	0xc09c6566	-4.8873777
183	0x3f902b24	1.1263165
184	0xc0607b06	-3.5075088
185	0xbe2b7b37	-0.16746221
186	0xbed4a9db	-0.4153584
187	0xbf444fbb	-0.7668416
188	0xbed38483	-0.41312036
189	0xbeac80f3	-0.3369213
190	0xbf782bf5	-0.96942073
191	0x3eb024b9	0.34403017
192	0xbf9456bf	-1.1588973
193	0xbd2a1a1a	-0.0415288
194	0xbf035b65	-0.5131133
195	0xc082bee5	-4.0858026
196	0x3ecdf16e	0.4022326
197	0x3f1b903f	0.6076698
198	0x3d9d9bda	0.07695742
199	0xbf8d93c2	-1.1060717
200	0xc0352a01	-2.8306887
201	0xc033606d	-2.8027604
202	0xbf0d3340	-0.55156326
203	0xbf567971	-0.83779055
204	0xbedb4af1	-0.42830613
205	0x3e812fd0	0.2523179
206	0xc08ba269	-4.3635755
207	0x3f1a9057	0.60376495
208	0xc0182eb5	-2.3778508
209	0x3f25bc3c	0.6474035
210	0xc00d711a	-2.2100282
211	0xc00bd611	-2.1849406
212	0xbf5808f2	-0.8438865
213	0xbf4beae9	-0.7965532
214	0x3f113eb8	0.56736326
215	0xbeb736bd	-0.3578395
216	0xc08df0ca	-4.435643
217	0x3f0827b7	0.531856
218	0xc0951358	-4.6586113
219	0xbff6cde6	-1.9281585
220	0x3d2cc47b	0.042179566
221	0xbe9abd3f	-0.30222508
222	0xbf273e22	-0.6532918
223	0xbd7e753e	-0.06212353
224	0x3e1a8c82	0.15092662
225	0xc0b5ae95	-5.6775613
226	0xbd5912bf	-0.052996393
227	0xbff1a723	-1.8879131
228	0x3ebce63e	0.3689441
229	0xbf06117f	-0.52370447
230	0xbe9582f7	-0.2920148
231	0x3e38d599	0.18050231
232	0xbd3c3611	-0.04595
233	0xc08ec909	-4.4620404
234	0x3ef61a51	0.48066953
235	0xc0f71d27	-7.7223086
236	0x3da15380	0.078772545
237	0x3e33f096	0.17572245
238	0xbe9e6794	-0.309384
239	0x3e9aabc8	0.30209184
240	0x3f5dbb22	0.86613667
241	0xbf2c36c2	-0.67271054
242	0xbf9c91fb	-1.223205
243	0xbf90db0a	-1.1316845
244	0xbe8cc039	-0.27490404
245	0xbe8b4db0	-0.27207708
246	0xbebac02c	-0.3647474
247	0xbea7ab51	-0.32747892
248	0xbf3d1112	-0.7385417
249	0x3e299275	0.16559775
250	0x3d3df855	0.046379406
251	0xbf992a2a	-1.1965992
252	0xc0395d62	-2.8963246
253	0xbfc967e7	-1.5734833
254	0x3f23d49e	0.63996303
255	0xbebdfd75	-0.37107435

l3.bias f4 [45]
0	0xbfe45079	-1.7837058
1	0xbcf0559d	-0.029337699
2	0xbec628d9	-0.3870304
3	0xbf89907b	-1.0747217
4	0x3ebab762	0.36468035
5	0xbfe4f25f	-1.7886466
6	0x3df48ded	0.11941133
7	0xbc6074c8	-0.013699718
8	0xbe1e9d38	-0.15489662
9	0xbf6d73b1	-0.92754656
10	0xbeefd2fa	-0.4684065
11	0xbe1c323c	-0.15253538
12	0xbee8462f	-0.45366046
13	0x3ec210b4	0.37903368
14	0x3ec60dc9	0.38682392
15	0xbfe32526	-1.7745712
16	0xbf038154	-0.51369214
17	0x3c900c17	0.01758389
18	0xbf2fd9ba	-0.686916
19	0xbf1e1edf	-0.61765856
20	0x3df31601	0.11869431
21	0xbe9d9daf	-0.30784366
22	0xbe3562de	-0.17713496
23	0xbee09ac5	-0.4386808
24	0xbce0fcc4	-0.027464278
25	0xbfb314e8	-1.3990755
26	0x3e612806	0.21987924
27	0xbf9b1a64	-1.2117429
28	0xbcbc8e45	-0.023017058
29	0x3d9f885a	0.07789679
30	0xc01974b2	-2.3977475
31	0xbd61eb4c	-0.055156037
32	0x3e41f28e	0.18940184
33	0xbf8b9c52	-1.090708
34	0xbec47639	-0.38371447
35	0x3ec198cc	0.37811887
36	0xbe9edb58	-0.3102672
37	0xbf40d296	-0.7532133
38	0x3e191470	0.14949203
39	0x3de69792	0.112593785
40	0xbd42c849	-0.047554288
41	0xbf13ad01	-0.5768586
42	0xbf358b3c	-0.7091558
43	0x3ce4daef	0.027936427
44	0x3e107207	0.14105998
